data.pth (torch, 5418 bytes, 6 tensors)

l1.weight f4 [8, 54]
000000 64 f9 0c 3f e4 1f 0a bd 34 0a ba be 12 1c 81 3e
       0.5506804 -0.03372182 -0.3633591 0.25216728
000010 f4 f6 92 3c e8 0b ba be 82 7b 2b bc b5 a7 61 be
       0.017940022 -0.3633721 -0.010466458 -0.22036631
000020 78 0f ae be 5c 2b 42 be 14 93 bb 3e 58 2d f3 bd
       -0.33996177 -0.18961853 0.3663565 -0.11873883
000030 54 4f af bd 1c 9e 8d be 1b 73 e1 bd a2 aa e6 bd
       -0.085600525 -0.2765969 -0.11008283 -0.112630144
000040 bd e0 7a 3e 42 b2 a6 be f8 f6 e0 3e 7f 16 42 3e
       0.24499793 -0.32557875 0.43938422 0.18953894
000050 4e d9 af 3e 9f f8 a8 3e 93 34 b6 3e be 22 98 3e
       0.34345478 0.33002183 0.35586986 0.29714006
000060 27 d1 a0 bd f4 15 67 3e 31 8a 99 3e a1 91 b4 be
       -0.07852393 0.22566968 0.29988244 -0.35267356
000070 7c 8c ca 3d 8e 17 78 be 74 ba 4a be 84 9d 27 be
       0.098900765 -0.24227735 -0.19797689 -0.16368681
000080 15 7b 28 3e 6f 09 a6 be 53 b5 1e be 53 29 e2 bd
       0.16453202 -0.32429072 -0.15498857 -0.11043038
000090 a0 7a ff 3d 9e 08 e7 be e1 67 69 be 05 ae 11 be
       0.12474561 -0.45123762 -0.22793533 -0.1422654
0000a0 e2 52 79 be 88 94 ca 3e d4 62 15 be 99 9a e3 bd
       -0.24348024 0.39566445 -0.14588481 -0.111134715
0000b0 46 9f 8c be 00 fa 24 be f7 e6 3a 3f 4c af 80 3e
       -0.27465266 -0.16110992 0.73008674 0.2513374
0000c0 8a 4e 9c 3d c4 5a da 3e a9 c7 07 be 67 e7 e3 3e
       0.07632168 0.42647374 -0.13259758 0.44512483
0000d0 89 0f a0 bd cc 54 72 3e c7 90 55 be 4f 9d 01 3f
       -0.07815463 0.2366516 -0.2085601 0.5063066
0000e0 0b 8f ab 3e 7f 77 6f 3b 17 89 4e 3e de 35 7f be
       0.3350757 0.003653973 0.20169483 -0.24922892
0000f0 99 d3 94 3e 86 c8 00 3f a3 ea e6 3e 47 10 a0 3e
       0.29067686 0.50305974 0.4510089 0.3126242
000100 51 68 46 bd d8 c1 c2 3e e5 80 44 3f 80 34 06 3f
       -0.048439328 0.38038516 0.7675918 0.5242386
000110 7e 27 03 3f 4f b2 0e 3b e6 96 4d be df 5c 7f be
       0.51232135 0.002177376 -0.20077094 -0.24937771
000120 a9 d9 a2 3e ef 2a 7f be e8 d7 f9 3c ad 38 7f be
       0.31806687 -0.24918722 0.03049846 -0.24923964
000130 3e 71 56 be 6b 03 03 be 3c 54 a1 3e 04 33 b6 bd
       -0.20941636 -0.12794273 0.31509578 -0.08896449
000140 99 96 e2 3e d5 6f 1f 3f d8 21 6a 3e 73 b0 ed 3e
       0.44255522 0.6228002 0.22864473 0.46423683
000150 ab 61 ff bd 0d 4d be 3e df 1d 96 3d bc c1 0e 3f
       -0.124698006 0.3716816 0.07329916 0.55764365
000160 1b 42 41 3f 07 50 1f 3e fb f9 a0 3e 5f af 14 3f
       0.75491494 0.15557872 0.3144072 0.58080095
000170 37 07 76 3e d5 1c ca 3e a2 47 70 be f6 0d 07 3f
       0.2402619 0.39475122 -0.23464826 0.5275568
000180 ee 4e bc 3e 3f b5 f8 3e fe 1e f2 3e 6d b5 09 3f
       0.3677897 0.4857578 0.4728927 0.5379246
000190 6b e4 b5 be e9 e6 91 bd a7 57 4c 3e 57 ac 09 3f
       -0.35525832 -0.07124121 0.19955312 0.53778595
0001a0 7e 45 a1 3d 4d 55 c2 3e c1 f1 d8 3e 77 4a e1 3d
       0.07874583 0.37955704 0.42371944 0.11000531
0001b0 a3 16 f4 bd 6f 95 78 be 12 7e e3 3e 8e df 85 3e
       -0.1191838 -0.24275754 0.44432122 0.2614712
0001c0 ea 22 e9 3e a1 20 fe 3e 62 bf bd 3e cf 8b 90 3e
       0.4553445 0.4963427 0.37060076 0.28231665
0001d0 c5 3c cb 3e 35 3c 07 3f 56 d1 b7 3e 19 13 7c be
       0.396948 0.52826244 0.35901898 -0.2461666
0001e0 6c a1 8a 3e 7e f4 4e be 47 e8 a0 bc 29 a5 6a be
       0.2707628 -0.20210454 -0.019642008 -0.22914566
0001f0 cf ad 98 3e 05 b3 fb 3e e7 63 50 3c e9 1a 40 3f
       0.29820105 0.4916002 0.012719131 0.7504106
000200 2d 61 9b bd f6 60 d6 3e 9f a6 1c 3f 5c 6f 51 bb
       -0.07586894 0.4187085 0.61191744 -0.0031957245
000210 ea c4 9b 3c 51 d3 8e 3e 45 4a 0c 3e 65 96 47 be
       0.019014794 0.27895597 0.13700207 -0.19490965
000220 af 8e 11 be 6d e6 83 be 23 cc 9e 3e 32 14 61 be
       -0.14214586 -0.25761738 0.3101512 -0.2198036
000230 fb 01 8c bd 7e 0e a2 3e 2a f0 fa bc 13 f4 4b be
       -0.06836315 0.31651682 -0.030632097 -0.19917326
000240 c3 fd 86 be a7 75 95 3e c6 98 b3 3e cb 6c 8d 3e
       -0.2636548 0.29191324 0.35077494 0.27622065
000250 b9 a0 6c 3e db 02 76 bc f6 90 7c be d5 e2 52 be
       0.23108186 -0.015015329 -0.24664673 -0.20594342
000260 4d 5a 6c 3d f5 e9 96 bb ff 72 e4 be c4 4e b1 bd
       0.057703305 -0.0046055266 -0.44618985 -0.086576015
000270 36 35 46 3e 55 50 42 be 21 ba 6a be ef cf a1 bb
       0.19356236 -0.18975957 -0.22922565 -0.0049381177
000280 0b 2d ea 3d bc f1 80 3e a6 1a 5c 3e 02 47 fd 3e
       0.114343725 0.2518443 0.2149454 0.49468237
000290 0b 33 49 be 6e c5 b7 3e 83 c8 85 3e 9b 76 d5 be
       -0.19648378 0.35892814 0.2612954 -0.4169205
0002a0 ad 1b 6a bd d3 36 7e be 74 ca 95 be 9b 8c ce bd
       -0.0571553 -0.24825601 -0.29256022 -0.10085412
0002b0 41 4d b3 3e a2 e0 82 be 5a 1f d0 3c 7c fe 47 be
       0.35019878 -0.25562006 0.025405575 -0.19530672
0002c0 8e ea c9 3e ba c9 9f 3d d2 b2 d9 3e b3 b0 c8 be
       0.39436764 0.07802148 0.42519242 -0.3919731
0002d0 a9 61 8c be 1e 18 1a 3f ed 53 2c 3e 81 74 f1 3e
       -0.2741826 0.6019305 0.1682889 0.47159198
0002e0 ed b9 f2 3e f2 33 00 3f 4d 59 2f be 49 ab da 3e
       0.47407475 0.5007926 -0.1712391 0.42708805
0002f0 6d 01 28 be d7 b4 14 3f 69 92 7b be fe f7 cc 3e
       -0.16406794 0.5808844 -0.2456757 0.40032953
000300 d9 64 32 be 93 96 7d be 74 34 2c 3e 2d 13 82 be
       -0.17421283 -0.24764471 0.16816884 -0.25405255
000310 d1 cc fb 3e 0a 3a f1 bd 34 78 09 be 00 92 63 be
       0.491797 -0.11778648 -0.1342476 -0.22223663
000320 4d 5f 28 be 5e 51 ba 3c 29 da c5 be 8d 64 5d be
       -0.16442604 0.022743877 -0.38643005 -0.21620388
000330 45 cc 33 be 5b 8e f6 3e 57 42 e2 bd f2 13 d7 3e
       -0.17558391 0.48155484 -0.110478096 0.42007405
000340 85 e4 97 3e 75 dd 3c 3e da ce 43 3e 38 93 bd be
       0.29666534 0.18443854 0.19121876 -0.37026381
000350 90 f6 f2 bc 44 dc 17 be 9f 96 bb bd 71 7e cb 3d
       -0.029658586 -0.14830118 -0.09159588 0.09936226
000360 79 db 89 be 95 fe 0f 3f 6a e6 b4 3e df 1c ef 3e
       -0.26925257 0.56247836 0.35332042 0.46701714
000370 b8 10 2e 3f 63 e9 02 bf 57 22 5e 3e 34 a2 00 3f
       0.6799426 -0.5113737 0.21692787 0.502475
000380 36 a8 b2 3e 2b c9 01 3f 73 2e f8 3e d7 00 4f bc
       0.3489396 0.5069758 0.48472938 -0.012634478
000390 dc 5d ca 3e 7c 09 37 be c0 02 05 3f 77 11 c7 bd
       0.39524734 -0.17874712 0.5195732 -0.09720128
0003a0 83 7e 0c 3f cf f8 02 bf 20 e2 a2 be 97 61 cf 3e
       0.5488054 -0.511609 -0.31813145 0.40504143
0003b0 18 00 1a be 7f 45 45 3f af 85 21 3f de aa cb 3e
       -0.15039098 0.7705917 0.6309461 0.397788
0003c0 32 75 46 3e dd 60 af 3e bb 4a cf be 6b e9 37 3f
       0.19380644 0.34253588 -0.40486702 0.7184054
0003d0 30 af 8c be d3 31 1e 3f ed e8 aa be 40 2b 5f bd
       -0.27477407 0.61794776 -0.33380833 -0.054484606
0003e0 e9 b8 0b be a4 18 d9 3e 6c a3 33 3f 23 5a 83 bc
       -0.13644756 0.42401612 0.70171237 -0.016034191
0003f0 39 7b 86 be e6 ae c8 3e 2e c6 9a 3e b7 7a dc 3e
       -0.26265886 0.39195937 0.30229324 0.43062374

l1.bias f4 [8]
000000 71 5d 09 3f fe 36 7f 3e e2 25 1d 3f 1e 5f ec 3e
       0.53658205 0.24923322 0.6138593 0.4616632
000010 d6 ef 02 3f 4d 34 fc 3e ba 5a e8 3e 7c 40 cd 3e
       0.5114721 0.49258652 0.4538172 0.4008826

l2.weight f4 [8, 8]
000000 af 24 89 3f 73 86 8b bf e7 52 29 3f e0 da 09 3f
       1.071432 -1.0900406 0.66142124 0.538496
000010 13 38 9a be 03 1f 8e 3e 19 dd dd 3e 19 bc a4 3e
       -0.30120906 0.27758035 0.43332747 0.32174757
000020 c6 3e 50 be e3 9f bf 3e 21 98 85 3f c5 8a 2c 3f
       -0.20336446 0.3742667 1.0437051 0.67399246
000030 b4 9b 89 3f e2 5b 00 bf e2 ba 88 be 90 f6 dc 3e
       1.0750642 -0.501402 -0.2670508 0.43156862
000040 2b eb 05 be 61 2c 51 3f 5e cd 3d 3f 65 08 bb bd
       -0.1307799 0.8170834 0.7414149 -0.091324605
000050 77 fa 46 3f da f4 4e bf 33 bf 3c 3f 96 76 15 3f
       0.7772593 -0.80842364 0.73729247 0.5838407
000060 1e c1 93 3e 61 61 bc 3d 44 a8 24 3e 7e bc f2 be
       0.28858274 0.09198261 0.16079813 -0.47409433
000070 89 2b 21 bf a8 00 94 3f 3e ed 08 3f f5 31 4c 3f
       -0.62957054 1.15627 0.53487 0.7976373
000080 2f 40 e6 be b6 03 39 3f 5b f6 92 3f 13 6c 51 bf
       -0.44970843 0.7227129 1.1481432 -0.81805533
000090 aa e6 0d bf 5f 10 19 be f6 65 62 3e c7 c0 ab 3f
       -0.5543009 -0.14947651 0.22109208 1.3418206
0000a0 71 2b 93 3f af a8 3b bf 44 a3 3a 3f 50 5a 79 3f
       1.1497632 -0.73304266 0.72905374 0.9740343
0000b0 a9 14 05 3f eb d6 4b bf 40 a0 8a 3f 57 2f 25 bf
       0.5198465 -0.79624814 1.0830154 -0.6452536
0000c0 72 e4 79 bf 7a ce 33 3f cd c4 98 bc 80 e7 78 3e
       -0.97614205 0.70236933 -0.01864853 0.2430706
0000d0 62 65 11 3f 70 a8 83 3f b8 91 fd be 42 36 5b 3e
       0.5679532 1.0285778 -0.49525237 0.21407416
0000e0 3e 31 72 3f 4e db 2e 3f 56 c8 f4 be 45 16 5e 3f
       0.9460639 0.6830338 -0.47809094 0.8675273
0000f0 4b 65 9e bd 6c a8 60 3f 37 1a 58 3f 63 41 a8 be
       -0.07734164 0.8775699 0.84415 -0.32862386

l2.bias f4 [8]
000000 7b bd 50 3f 66 0b a2 3e 49 2d d9 bd 10 88 87 3e
       0.81539124 0.3164932 -0.106043406 0.26470995
000010 60 50 24 3f cb 72 a3 3e 3b 13 21 3f 2c 35 9b be
       0.6418514 0.31923518 0.6291997 -0.30314004

l3.weight f4 [7, 8]
000000 12 5b 94 bf 07 45 cd be bb e8 b9 bf e6 c9 1c 3f
       -1.1590292 -0.40091726 -1.4524149 0.6124557
000010 75 d8 20 bf c0 b6 65 bf 3b 70 15 3f f2 84 bb 3e
       -0.6283029 -0.8973198 0.58374375 0.36624867
000020 99 39 84 bf c0 6f 09 3f c6 df a1 bd 1f 26 98 bf
       -1.0330077 0.5368614 -0.079040095 -1.1886634
000030 31 5a 6a bf 08 3c 61 bf ec 02 04 3f 12 f9 e0 3e
       -0.9154387 -0.87982225 0.5156696 0.43940026
000040 45 9f 07 3f 76 cd 35 3d 42 9d 91 bf 4d ca 0a 3f
       0.529774 0.044385396 -1.1376116 0.54214936
000050 f2 91 20 3f 97 34 98 bf 6e 19 4a 3e 26 d8 c5 bf
       0.62722695 -1.1891049 0.19736263 -1.5456588
000060 6c a3 81 3e 5a 5b 81 3e 9d ff 39 3e e3 72 c2 bf
       0.25319993 0.25265008 0.18163915 -1.5191311
000070 87 24 51 bf 5f 8b 14 3f 5f 0c 22 bf 3d de 1c be
       -0.8169636 0.58025163 -0.63300127 -0.15319152
000080 78 7d 40 bf 6f 58 6c bf 3c 04 1d 3f 28 f1 53 3e
       -0.7519145 -0.9232244 0.61334586 0.20697463
000090 13 fd 3d 3e bb fc af be e9 67 82 bf d4 5f bb 3e
       0.18553571 -0.34372506 -1.0187961 0.3659655
0000a0 ca 11 ae bf ac 7c 2a 3f 2b ad 2b 3f 27 c3 1d bf
       -1.3599179 0.66596484 0.6706111 -0.61625904
0000b0 8f 2f d0 3d 2a 3a 20 bf c9 da 31 be 8b 11 9b bf
       0.10165321 -0.6258875 -0.17368616 -1.2114729
0000c0 00 31 be 3e 5f af d0 bf f6 72 ad bf 43 94 cc 3e
       0.3714676 -1.6303519 -1.3550708 0.39956865
0000d0 d7 0f 8b bf 7f d3 09 3f 8d 50 33 bf 05 a5 ed 3e
       -1.0864209 0.5383834 -0.70044786 0.46414962

l3.bias f4 [7]
000000 f0 1b 17 be 81 b7 b9 be b6 7d 3d 3e 33 63 73 3e
       -0.14756751 -0.36272815 0.18504986 0.2376831
000010 66 c7 93 bd 22 49 aa 3d d5 c1 71 3e
       -0.072157666 0.0831473 0.23609097
